Lab2/problem/neural-network-1.pth (torch, 24162 bytes, 6 tensors)

weight f4 [64, 8]
00000000: 2f22 fb3c 6040 b9bd 5d60 c8bf 8711 61be
00000010: 4018 613f fa06 1f3f 362f 82be a587 69bf
00000020: 9a15 6abd 8da5 b9be 82aa dfbe 7fb4 9ebe
00000030: a1e0 973f a4be 163f f599 6f3e 11e3 4fbe
00000040: 4332 16bf be51 e43e 2c98 dfbe 3fdd 1fbd
00000050: 0fcd 363f 2a02 f53e 58e6 e73e 7ffa d1bd
00000060: e0f3 71be b71b 2f3f 39af 56bf 360a 67be
00000070: bce1 87bf ffea 82bf 282a 80be ff5d 8ebf
00000080: 17a4 cc3e 1e60 193e e128 a33e 33b3 05bf
00000090: 98fb 3dbf 6153 a7be d982 833e 7e81 c3be
000000a0: 994b 47be f48b 933d b1f0 323f 9b54 cfbd
000000b0: 1a63 e1be 4710 393f a69b 283f 8120 413e
000000c0: bd87 333d 40a9 94b9 4038 e7bc 5c59 afbd
000000d0: b95b 7440 29d0 8dbe f53f ac3e e48d 153e
000000e0: 672d 96bf 636a 553f d101 48be 6169 453e
000000f0: 836c 203e b443 bb3e d26d dabd 7eb8 153f
00000100: 5bbb aabe 5414 c63d 77b2 883f 37b5 c43c
00000110: ea9c e1be 2b6f 0f3f d134 733f db71 b8be
00000120: 45b6 c9be fc31 3b3e 7bc9 89bc bfd0 56bf
00000130: fc3d 8f3e 61a1 4ebf f21a 6fbf be1d 2c3f
00000140: a3e4 ad3b 2c9b 10bf e8ed c1bf e1dd 62be
00000150: 09cd 3b3f 8641 dabe a39b c53e 5671 893e
00000160: 33ab c83e a2cc 323f a6e7 f3be de4d d03e
00000170: 8296 533f d29c adbe de9e 2bbf a59b da3e
00000180: 61cb 323f 4af1 42bd f7e0 0ebf ce06 60bf
00000190: adff 293f 9526 9abd 18d1 07be af42 0b3e
000001a0: 283b a8be 24c4 7f3d c08b dbbd 4c0c 20bc
000001b0: 829e a13c 23d0 b6bf 1e0e 9b3e fcc8 983e
000001c0: e937 4a3e 1420 993d b895 2a3f dade 35bf
000001d0: 747e 4bbf 3f26 3cbf 2100 833e 6cbd 95bb
000001e0: ab1c 02be 0bf2 443f 8c72 41bf f180 b23d
000001f0: bf88 873e 7dff 95bf 3bb4 4b3e d62a 9abf
00000200: 1ad1 8e3f 5de2 9abd 0d0e ac3d fe02 a0be
00000210: 40d3 45bf e9b1 aebf 373f 63bf 06b8 aa3e
00000220: a38a 81be 3b39 bfbe 6714 9dbf b7f5 a0bf
00000230: 1f87 48bf 3401 22be a325 a33f 4c8c 8b3e
00000240: 475a bdbd 8fb5 533f 6b07 fc3d 9d78 733f
00000250: b2d2 283d 2374 e43d 9985 3f3f 8fa7 5b3e
00000260: fce6 323f f723 873f f496 5cbf 0b28 3f3e
00000270: f2b5 a03f 1c0d 4abf 0f1f bbbf d9de 2ebf
00000280: 22ae 4ebe b1e9 4f3d e298 44bf 908d c7bf
00000290: 4aee ba3e 3ef3 443f 0d0b b43f ff43 12bf
000002a0: 45b7 09bf 5a9b b7bd 4bf7 3bbf 22f0 49be
000002b0: 218d ad3f 8bbd 663b 4dee 3b3b c95b 92bf
000002c0: 3c9c aebe 5c81 963d 1379 2cbf 2258 8ebf
000002d0: 3b06 833f 4f54 103f 5d3f d4be 2129 6b3e
000002e0: 6fea 6d3c ec51 7ebf c0fa 9e3e 75ff 7bbf
000002f0: a889 ae3e 8f71 6c3d dbe9 0e3f 4ddf d83d
00000300: 59e0 51be af99 7bbe 8ba3 793f fb9a 493e
00000310: 96b0 acbe dfba 253f 92b9 7e3f afc4 c7be
00000320: ec63 a9be 958e 15bd 3b4a 933d 92e4 52bf
00000330: 4978 1ec0 551d fabd 6424 a13f ed61 843e
00000340: 7606 45bf 540b f0be 0b76 44be 5413 04be
00000350: e03d 8e3f 4fdd 183f 33ec c23e de04 cbbd
00000360: e443 e8be 7fbc 9b3e 1f6e e4be f240 823f
00000370: 5e21 693f f91d 123f ca01 b9bd e4ca 75bf
00000380: 056a 163f 7f20 b3be 5c82 81bd b6b3 2cbf
00000390: fbf3 45bf b0e9 77bf 60a7 523f 26fb 92bd
000003a0: ab50 c63e e2d9 e5be cc4d 1ebe 0504 70bf
000003b0: d9ef c2be c334 cd3e dc40 a03e a067 6f3e
000003c0: 8e89 6f3f 2950 023f 3c58 a3bd 6293 6f3c
000003d0: c08f 443e 8d8c 5ebe 7fc3 08bf 73c5 403f
000003e0: a76c 513f 4eb9 eebd 0186 d73e 7632 c7be
000003f0: 87f7 34bf 82d2 6ebf 9716 573e aea4 2f3f
0.030655948 -0.09045482 -1.5654408 -0.21979342 0.8792763 0.6212002 -0.25426644 -0.912226
-0.057149507 -0.36259118 -0.43684775 -0.30997083 1.1865426 0.58884645 0.23398574 -0.20301463
-0.58670443 0.44593614 -0.43670785 -0.039029356 0.71406645 0.47853214 0.45292926 -0.102528565
-0.23628187 0.68401664 -0.8386112 -0.22562489 -1.0615764 -1.0227965 -0.25032163 -1.1122435
0.3996894 0.14978072 0.31867126 -0.5222656 -0.74212027 -0.326808 0.25685766 -0.38184732
-0.19462432 0.07204428 0.69898516 -0.10123559 -0.4402092 0.7229046 0.658625 0.18860056
0.043830622 -0.0002835486 -0.028225064 -0.08561966 3.8180983 -0.27697876 0.33642545 0.14604908
-1.1732606 0.8336546 -0.19531943 0.1927848 0.15666394 0.3657509 -0.10665478 0.5848464
-0.33346066 0.09671846 1.0679463 0.024012191 -0.44065028 0.56029004 0.95002466 -0.36024365
-0.39396873 0.18280786 -0.016819706 -0.8391227 0.27976978 -0.80714995 -0.9340049 0.6723288
0.0053067966 -0.56486773 -1.5150728 -0.22154953 0.73359734 -0.42628115 0.38595304 0.2684428
0.39193115 0.69843495 -0.4763767 0.40684408 0.8265153 -0.33908707 -0.6703929 0.42696872
0.6984158 -0.047593392 -0.5581202 -0.87510383 0.66405755 -0.0752689 -0.13263357 0.13599657
-0.32857633 0.062442914 -0.107200146 -0.009768557 0.019728903 -1.4282268 0.30284208 0.2984084
0.1974789 0.074768215 0.666347 -0.7104317 -0.7948983 -0.7349586 0.25586036 -0.0045697
-0.12706248 0.7693183 -0.7556541 0.08716 0.26471516 -1.1718594 0.19892971 -1.2044322
1.1157563 -0.075627066 0.084011175 -0.31252283 -0.77275467 -1.3648044 -0.88768333 0.33343524
-0.25301084 -0.3734835 -1.2271851 -1.2574986 -0.7833118 -0.15820771 1.2745861 0.27255476
-0.09245735 0.8269891 0.12306102 0.95105916 0.04121656 0.11154964 0.7481323 0.21450637
0.69883704 1.0557851 -0.86167836 0.18667619 1.2555525 -0.78926253 -1.4618853 -0.6830879
-0.20183614 0.050759975 -0.7679578 -1.5590076 0.36509925 0.7693366 1.4065872 -0.57135004
-0.5379527 -0.08965178 -0.73424214 -0.1972051 1.3558694 0.0035208191 0.0028675974 -1.1434261
-0.34103572 0.07348892 -0.67372245 -1.1120646 1.0236276 0.56378645 -0.41454592 0.22964908
0.014521225 -0.9934375 0.31050682 -0.9843667 0.34089398 0.057725485 0.55825585 0.10589466
-0.20495738 -0.24570344 0.9751517 0.19688027 -0.33728474 0.6473827 0.9950191 -0.39017245
-0.33084047 -0.03651293 0.07191893 -0.8238002 -2.4760916 -0.12212626 1.258923 0.2585596
-0.76962984 -0.46883643 -0.19185655 -0.12897998 1.1112633 0.5971269 0.3807083 -0.09913038
-0.45364296 0.3041725 -0.44615266 1.017607 0.9106654 0.57076985 -0.09033544 -0.9601271
0.5875552 -0.3498573 -0.06323692 -0.6746172 -0.7732541 -0.96840954 0.82286644 -0.07176809
0.3873342 -0.44892794 -0.15459365 -0.93756133 -0.38073614 0.40079316 0.31299484 0.23379374
0.93569267 0.50903565 -0.07975814 0.014622541 0.19195461 -0.21733303 -0.53423303 0.75301284
0.81806415 -0.11656438 0.42094424 -0.38905686 -0.70690197 -0.9328996 0.21004711 0.68610656

bias f4 [64]
00000000: 7a34 bcbe 3ebd 64bf e8f8 23bf a03a 833d
00000010: 7128 f63e 9e8d 743f e865 56bd beba dfbe
00000020: 3f40 303f 0a93 223f 5289 f43e 4166 7b3f
00000030: 4418 1f3f 6707 cf3b 3dcc 323f 9c05 70be
00000040: ce0b 573e d210 0e3f fa3b be3e 008f 71be
00000050: 6b3c d13b c03a 0d3f 560b 213f 4c19 a9be
00000060: 6af0 333f bdb4 8abd 0f94 bc3d 2813 163f
00000070: 46b3 99be 0f25 c13e 9ac1 c93e f52d b8be
00000080: 2d0e c7be d6c8 d23e 21fd aabc f4c2 3c3c
00000090: 01f1 0c3f 352b 463e 8a6c 863f eec0 003f
000000a0: 64ab 903e 2f64 2c3f a62a 99bd 5d46 fa3e
000000b0: 08b6 0cbe 2d62 2c3f 564f 833f 3fca 9fbe
000000c0: 47cf 9cbe 752a 5fbf e7b1 2b3d c419 843f
000000d0: c126 003f 5ceb b5be df04 8e3f ec47 ca3e
000000e0: df2b 03be dacd 983d 7863 f93e 0d7e 863f
000000f0: 28ee 25bd bb15 41bf 9835 0e3f 175b a6bc
-0.36758786 -0.8935126 -0.64051676 0.06407666 0.4807773 0.9552859 -0.05234328 -0.4369716
0.6884803 0.63505614 0.47761017 0.982029 0.621464 0.006318021 0.6984289 -0.2343964
0.21000597 0.55494416 0.37155133 -0.23589706 0.006385376 0.5516777 0.6290792 -0.33027112
0.7028872 -0.06772754 0.092079274 0.5862298 -0.30019587 0.37723586 0.3940552 -0.35972562
-0.38878003 0.4116885 -0.020872654 0.01152109 0.5505524 0.1935242 1.0501873 0.5029439
0.2825576 0.6734037 -0.07478838 0.48881808 -0.13741314 0.67337304 1.0258586 -0.3120899
-0.3062689 -0.8717416 0.041917708 1.0320363 0.50059134 -0.35531127 1.1095237 0.39507997
-0.12809704 0.07461138 0.487087 1.0507218 -0.040510327 -0.75423783 0.5555053 -0.020307107

weight f4 [64, 64]
00000000: 938e b63e a999 ac3f 1fbf 3e3f e603 a93e
00000010: 030b d73e 2f15 5dbe ef59 0d3e 8c7d 733f
00000020: 31dd 0abe c232 bc3d c943 31be cb70 aebe
00000030: 4060 213e 7d5a 833c 3070 1b3f 8c8f 813e
00000040: a641 4d3f 20ca b1be 420b bb3e c6cf 03c0
00000050: 8f02 d1bd 8428 f03e 5f84 373e 4cce 2e3f
00000060: 0493 e6bd c233 503e 1134 0f3f b2f8 a1be
00000070: eeaa a93f 88ba 543e 2c47 bbbc 2281 1e3f
00000080: 6ebb 8c3f 4815 9e3a 3f89 0ebe e379 b13e
00000090: 4007 f7bd 2633 6d3f f80d ddbe 16e1 f53e
000000a0: 276e 263e 220c d7bd 51ef 13be 1a0d c1bc
000000b0: 0b32 c83d 7418 b33e bf37 7bbf 9c5a fcbf
000000c0: 34fd 8dbf 0566 163f 49ce d53c fc95 e73c
000000d0: 5b81 ae3e c225 0a3f 39aa b3bc bfe3 d7bd
000000e0: 8137 dc3e 4c14 cf3e 7eb6 2bbe f227 aebe
000000f0: 707c 52bf d356 af3f fbce bcbe 3a60 a43e
00000100: 7fe4 a23e fd66 79bf 4bcd 233e 5be1 093f
00000110: be25 6e3e 09c2 11be 2f72 95bf b39e 863f
00000120: 025f 42bc 8939 b73e 9a20 06bf 5607 cc3c
00000130: 2be9 313e a0e5 1d3f 2080 023f 9c5a 083e
00000140: 624b 483f 6dd1 23bf 5da9 c23e 81a3 a53c
00000150: 7fa5 88bf 9855 083f f130 523d 2ed3 9c3f
00000160: 78c4 9abd 1617 d03c 7a52 0cbe 8612 9e3e
00000170: 703d a23f 6149 593d 58b7 d33d d8b1 773f
00000180: 69ed f73e f280 c4be 410f 573d 60de ed3e
00000190: a4e4 813c 2170 d23e f22d 91be 4496 2d3f
000001a0: 1474 af3c f079 efbe 2035 1c3f 78b8 72be
000001b0: 44a0 76bf 9bb0 3b3f 8588 07bf fcb0 12bf
000001c0: c50d 513e 4843 a93f b2e4 ecbc 0c91 643e
000001d0: bd34 8b3e 9ec2 d93e 7806 223e 64f2 70be
000001e0: df3e 313f 1280 073f 5c9d 41bf cc37 78bd
000001f0: 1f23 563e 9583 7e3e 8c28 b2be f800 edbd
00000200: 5255 c03e 5e19 f4be 16ce 40bf beeb 14be
00000210: cc2e 0a3f 7abb 323f 098f 313f 711e a7be
00000220: b3d1 113f d172 85be e2ae 793e 9b45 f43e
00000230: 71d2 52be 7f4e 93bf 5bf3 5dbf ff75 26be
00000240: 0639 85bf 4e96 fe3e 7c33 75be 3d3d 863e
00000250: 6c81 663f b2fe 7b3e 441e a5bd 7bda d2be
00000260: 408b 3b3f 90f6 223f 5851 9abd a6da 343e
00000270: 8b1e bfbf 9d51 ed3e bff8 b63e 078c 6bbf
00000280: dfd4 f1bd f462 423f 6e64 b6bd abfa 1f3c
00000290: caf1 d93e e35d 34bc 7f32 653f b6da c1be
000002a0: 33ed 0d3e 6c97 233f 4ae2 683e c3dc 1abf
000002b0: cf39 9b3f d438 93be 03dc ad3e ed34 d03e
000002c0: 1a46 803f 2b66 01c0 239e aebe e0c7 d53e
000002d0: 4163 7a3d 9b81 a7be e44c e33e 884e 5dbe
000002e0: f0fc 833d 8aa1 e3be 6e49 053f d32b 543f
000002f0: 6eb3 123f e339 d9be 473d 50be fb5d efbe
00000300: 463c b73f 70ab 9bbf 4197 69bf 3f3f 823f
00000310: 041e 8abe 3bd2 503d a37e 0ec0 8b69 bd3b
00000320: 13f4 bdbe 1725 9b3f fdba 4dbf cde5 483f
00000330: 2bdc 383d 38e4 443f ec4e b13e cfbd 823f
00000340: b10f 033f 5bca bdbf 2a2c 8f3f 98e9 2f3f
00000350: 2ddd 09c0 bd66 923f 3f6e a73e bace cb3e
00000360: 5a43 2fbf 61d3 0bc0 ede7 b9be a788 493f
00000370: c478 903e b747 723d d236 3f3e 1ada 953e
00000380: 465c df3e 2f8a b9bf 0bc0 8fbe b8e5 973e
00000390: b791 02bc 7b17 643f 4149 fd3e 91a6 823f
000003a0: a93b 233f e75b c9bf a630 093f 5667 a3bd
000003b0: dbf1 f7bf 7873 6f3f 1386 833f c79c 98bd
000003c0: e1af 41bf 5421 943f 295a 1cbf 099d 343f
000003d0: 90f8 923f c636 c9bf 6290 573f bea5 cbbe
000003e0: a091 393f f070 373f b027 ddbf 4e52 333f
000003f0: 16e6 1b3f 47c6 08c0 1b36 b1be d3dd 8bbe
0.3565565 1.3484393 0.7451038 0.33010787 0.4200059 -0.21590112 0.13803838 0.95113444
-0.1356094 0.09189369 -0.17311014 -0.3407043 0.15759373 0.01603436 0.6071806 0.2530483
0.80178297 -0.34724522 0.36532027 -2.0595565 -0.10205566 0.4690591 0.1792159 0.68283534
-0.1125851 0.20332244 0.5593882 -0.31635052 1.3255289 0.20774281 -0.022861086 0.6191579
1.0994699 0.0012060786 -0.13919543 0.34663305 -0.1206193 0.9265617 -0.4317472 0.4802329
0.16252957 -0.10500361 -0.1444676 -0.023565818 0.0977517 0.34979594 -0.98131937 -1.9715152
-1.1092896 0.5874942 0.026099341 0.02826976 0.34083065 0.53963864 -0.021931754 -0.10541486
0.43011096 0.40445173 -0.16768834 -0.3401485 -0.82221127 1.3698372 -0.36876664 0.32104665
0.31814954 -0.9742277 0.15996282 0.5385949 0.23256585 -0.14234175 -1.1675471 1.0517181
-0.011863472 0.35786083 -0.52393496 0.024905842 0.17374103 0.61678505 0.50976753 0.13315815
0.78240025 -0.63991433 0.3801984 0.020219566 -1.0675505 0.53255606 0.051316205 1.2251947
-0.07557005 0.025401633 -0.13703337 0.30873507 1.2674999 0.053048495 0.103377044 0.96755743
0.48423317 -0.38379627 0.05250478 0.4645872 0.015856095 0.41101173 -0.28355366 0.6780741
0.021417655 -0.46772718 0.6101856 -0.23703182 -0.96338296 0.73316354 -0.5294269 -0.57301307
0.20415409 1.3223658 -0.028917644 0.22320956 0.27188674 0.42531294 0.1582278 -0.23529965
0.6923656 0.52929795 -0.75630736 -0.060600087 0.20911835 0.24854882 -0.3479656 -0.115724504
0.37565094 -0.47675604 -0.7531446 -0.14543054 0.53977656 0.69817317 0.6935888 -0.32640412
0.569606 -0.2606416 0.24383119 0.47709355 -0.2058809 -1.150833 -0.86699456 -0.1625595
-1.0408027 0.49724048 -0.23945421 0.26218596 0.9004123 0.24608877 -0.08062413 -0.41182312
0.73259354 0.63657475 -0.07535046 0.17661533 -1.4931196 0.46351328 0.35736653 -0.9201054
-0.1180818 0.7593224 -0.08905874 0.009764354 0.42567283 -0.011008712 0.89530176 -0.37862176
0.13860016 0.63902926 0.22742572 -0.60493106 1.2127017 -0.28754294 0.33956918 0.4066538
1.0021393 -2.0218608 -0.34105024 0.41754055 0.061129812 -0.3271607 0.443946 -0.21611989
0.064447284 -0.44459182 0.5206517 0.8287937 0.5730504 -0.42426977 -0.20335875 -0.4675139
1.4315269 -1.2161694 -0.9124642 1.0175551 -0.26976025 0.05098174 -2.2264793 0.005780404
-0.37100276 1.2120694 -0.80363446 0.7847565 0.045131844 0.76910734 0.34630525 1.0214175
0.5119582 -1.4827379 1.1185353 0.6871581 -2.1541245 1.1437603 0.327013 0.39806157
-0.68462145 -2.1847765 -0.36309758 0.7872414 0.28217137 0.059150424 0.18673256 0.2926796
0.43625087 -1.4495295 -0.28076205 0.2966745 -0.007969311 0.8909833 0.4946995 1.0207082
0.6376291 -1.5731171 0.53589857 -0.07978694 -1.9370683 0.93535566 1.0275291 -0.07451778
-0.75658995 1.1572671 -0.61075073 0.70552117 1.1482105 -1.571984 0.84204686 -0.3977489
0.7248783 0.71656704 -1.7277737 0.7004746 0.6089796 -2.137102 -0.34611592 -0.27317676

bias f4 [64]
00000000: 77d3 f0be 1819 cbbe 427d 363f b21b 183f
00000010: e17a c83d 80f3 2f3f 4248 78be 7bec 193e
00000020: 7f14 d4bd 4f2e 213f 9156 1a3d 97f1 bcbe
00000030: 979c 9b3c 4dc2 febe 026a f83e 506b 86be
00000040: 5b5b 01bf 63c0 83bd 33ec 25be bfb9 223f
00000050: 5d18 fdbe 4a13 633f 4b32 7ebf 96bc cb3e
00000060: 0de8 8abe dee4 8bbf 4958 5dbe 9711 4dbf
00000070: 41da 163e b3b9 a53e 0572 9b3e 5732 28bd
00000080: db4e bcbe 82bc 7abe 667c d3be bc63 18be
00000090: 2b7a 8c3d c519 bc3e b9a1 fd3e db12 4abf
000000a0: c964 353e f632 f0bd 595a a5be c206 0dbf
000000b0: 31d6 bb3e 7ce2 1a3f 4ab8 e43e 907d 783e
000000c0: b9d3 b7be b2e9 f3be 8788 6bbe 0eb2 f0be
000000d0: 4605 8c3e b7ad e1bd 037c 8bbe c456 203e
000000e0: b89b 763e 475c 8bbe ec7d 853e b470 34be
000000f0: 1a04 633b f6f5 0abe a0a1 babe daf8 a6be
-0.47036335 -0.39667583 0.7128488 0.5941726 0.09789062 0.68730927 -0.24246314 0.15031616
-0.10355472 0.62961286 0.037680212 -0.36903068 0.018995566 -0.49757615 0.48518378 -0.26253748
-0.5053002 -0.06433179 -0.16203384 0.63564676 -0.4943265 0.8870131 -0.9929549 0.39792317
-0.27130166 -1.092922 -0.2161571 -0.80104965 0.14731695 0.3236824 0.30360427 -0.041063633
-0.36778912 -0.24485973 -0.41305846 -0.14881796 0.06859239 0.3673841 0.49537447 -0.7893502
0.17714228 -0.1172847 -0.32295492 -0.55088437 0.36686853 0.6050184 0.4467185 0.24266648
-0.3590372 -0.47639233 -0.230013 -0.47010845 0.27347773 -0.110194616 -0.2724305 0.15658098
0.2408284 -0.2721884 0.26072633 -0.17621118 0.0034639896 -0.13570389 -0.36451435 -0.32611734

weight f4 [4, 64]
00000000: df8e 55bf e057 52bf 280a 5e3f 296b 89bf
00000010: 48b2 343d 7985 633f d209 6bbf 6d55 b2bf
00000020: 5c86 bfbd ad65 833f c7a0 6a3d 4926 2dbf
00000030: 861a 32bd 3c11 febe 28a2 95bf 1da1 63bf
00000040: 5f5c 30bf 306f 073d 6d9c 6bbf f539 993e
00000050: 2ea0 a8bf 15c2 a13f 2798 00bf c47a 953f
00000060: 0eaa 25bf 4dc7 9ebf 53e6 fabe 6d61 b4bf
00000070: fb33 853e 7653 923f fbff af3f 89cb 6bbf
00000080: 88eb 31bf dab4 9ebe 70ca 13bf 9447 7ebd
00000090: 8346 0c3d 27d2 763f 5eac 723f 7c27 51bf
000000a0: 9e35 fb3d 80fe b33d d98a 9bbe 2200 a6be
000000b0: 8034 8d3f 5ce3 8b3f f0c0 8e3f bf4f a73f
000000c0: 6795 19bf 6445 1ebf 4eff d9be b9e8 25bf
000000d0: d13b fe3f 8023 9abf f643 96be 951e abbf
000000e0: e80a a5bf b8ad d8be 4d78 a33f 5b37 babe
000000f0: 48ab 08bf f6c1 d2be 7cb3 08bf e7b0 01bf
00000100: a302 02bf e238 33bf 835a 453f eaed 8dbf
00000110: e476 4dbd 7fc8 633f ea23 8ebf 9ca2 a1bf
00000120: 50a2 dd3d 9212 883f 4713 8d3d 1a31 2dbf
00000130: bf1b 993d b7b1 26bf f8ce 41bf 0fd6 39bf
00000140: 6c6d 58bf 4e60 3f3d a889 42bf c664 333e
00000150: 47a4 36bf 8ff3 b83f 5948 aabf 985a 883f
00000160: 4b17 4dbf b1f5 8cbf bfbd aabe e4f0 6fbf
00000170: b16e 053f b77c 9a3f 80b7 c13f de2f 9cbf
00000180: 76a1 22bf 01b9 28be d535 c9be a3ec ab3d
00000190: 486c 703d b78d e33e 3beb 9d3f 89c4 b1be
000001a0: 920e 093f 2af2 e53d 8f15 69bf ec96 50bf
000001b0: e678 803f 7279 aa3f 2ef7 553f cafd af3f
000001c0: ad56 2fbf 2970 c5be 5727 3dbf 1f70 60bf
000001d0: 4e7c 0a40 5892 9cbf e0eb ccbe bf47 a0bf
000001e0: 9dbc c2bf 6c5c 02bf 0fc0 903f efea c2be
000001f0: 4f47 0dbf 8dff 03be 36f9 2abf 7380 03bf
00000200: 7f9c 9dbf fff1 84be 6606 813f 3993 a9bf
00000210: 8af0 e2bd f9ad 983f 1c64 a2be 0ce3 69bf
00000220: 44ff 73bd 68ce 923f f849 1d39 f8e5 18bf
00000230: 8541 223d 51b6 87bf fa49 d4bf d078 e5bf
00000240: d3a0 08bf 0451 b53d d6d2 99bf cec7 903f
00000250: eca7 39bf 896c 123e 33b8 6dbf 0eb5 ab3f
00000260: 1036 dabe f1d3 00c0 2360 6bbf a911 9fbf
00000270: e27f 683e 97e4 853f be7c c53f 11ef 1ebf
00000280: d5cd a2bf 8b8f 90bf caaf 68bf 69f5 1b3d
00000290: 7063 b33d f040 1e3f 2b6e 953f adfd 8cbf
000002a0: 0d5c ae3f fca7 073d b88d 673e 767d 90bf
000002b0: 7477 8d3f e45b ad3f 411e 043f b230 ab3f
000002c0: ae7b 673e 6f1d d5be ce13 f9be cfb3 16bf
000002d0: 159c b03f 2b0b b0bf 2c40 5abf 3e8b b0bf
000002e0: e2fe 9abf 1f0c 3ebf af80 af3f c41b 23bf
000002f0: 8db1 1abb ff62 53bf 21a9 2fbf c2a8 7dbf
00000300: 1028 94bf 9868 35bf 0434 753f 69d1 84bf
00000310: 7aaa 55bc 23e1 153f 65a3 03bf f1e2 b4bf
00000320: d155 10bd 696b 603f be58 5d3c 84f5 4dbf
00000330: e884 d8bc 98a0 45bd 63b7 c9bf c776 80bf
00000340: 5b0a 51bf 35ac 473b 9978 5bbf 8f06 883e
00000350: daa8 9dbf 43da 773f 8cec 06bf 7db1 ab3f
00000360: e55f 0bbf bee1 bdbf 366f 11bf 0953 b4bf
00000370: 904f 203f 7c5a 623f 8dfa a73f 8ae8 17bf
00000380: 47aa 85bf db9a 27be 6883 1cbf ccf9 42bd
00000390: 5c50 fe3d 0992 d03f 3f15 5f3f 355b a9bf
000003a0: 3dc6 1ebf 7499 cdbd abd0 2bbd ff6a c8be
000003b0: 1fd5 9a3f febc 913f e518 a53f 1a03 9e3f
000003c0: 61b3 e4be b331 16bf 60e4 efbe 469a ecbe
000003d0: bc2a 0240 077a bdbf 700d d2be 5e5b a5bf
000003e0: 7e44 87bf 2e7f 10bf 926f b23f 1e89 ecbe
000003f0: f368 90bf 3683 2bbe 704a 12bf 6ace 0fbf
-0.8342113 -0.82165337 0.8673425 -1.0735828 0.044115335 0.8887554 -0.9181186 -1.393232
-0.09351799 1.0265404 0.057282235 -0.67636544 -0.043482326 -0.49622524 -1.1690111 -0.88917714
-0.6889095 0.03306502 -0.9203556 0.2992703 -1.3173883 1.2637354 -0.50232166 1.167809
-0.6471261 -1.2404572 -0.49003848 -1.4092232 0.2601622 1.143172 1.3749994 -0.92107445
-0.6950002 -0.30997354 -0.5773077 -0.06207998 0.034246933 0.9641442 0.9479426 -0.81700873
0.12266086 0.087887764 -0.3037937 -0.32421976 1.1031647 1.092876 1.115263 1.3071212
-0.59993595 -0.6182463 -0.42577595 -0.6480823 1.9862005 -1.2042084 -0.29348725 -1.3368708
-1.2893953 -0.42320037 1.2771088 -0.36370358 -0.53386354 -0.41163605 -0.5339887 -0.50660557
-0.50785273 -0.7000867 0.77091235 -1.1088231 -0.05016221 0.8897781 -1.110471 -1.262775
0.10821974 1.0630667 0.068884425 -0.6765305 0.07475995 -0.6511492 -0.75706434 -0.7259225
-0.84541965 0.046722703 -0.75991297 0.17518911 -0.7134442 1.4449328 -1.3303329 1.0652647
-0.8011367 -1.1012479 -0.3334789 -0.93726945 0.52122027 1.206931 1.5134125 -1.2202108
-0.6352762 -0.16476823 -0.39298883 0.08394744 0.058697015 0.44444057 1.2337412 -0.34720257
0.5353786 0.1122783 -0.9104852 -0.8148029 1.0036895 1.3318312 0.8358029 1.3749325
-0.6849163 -0.38562134 -0.7388815 -0.87671083 2.163837 -1.223216 -0.40023708 -1.2521895
-1.521381 -0.50922275 1.1308612 -0.38069865 -0.55186933 -0.12890454 -0.66786516 -0.5136787
-1.2313384 -0.25965878 1.0080078 -1.3248054 -0.110810354 1.1928092 -0.31717002 -0.9136207
-0.059569612 1.146924 0.00015000242 -0.59725904 0.039613266 -1.0602514 -1.6585076 -1.7927494
-0.533704 0.08853343 -1.2017467 1.1310976 -0.72521853 0.14299215 -0.9285919 1.3414629
-0.4261937 -2.0129359 -0.9194357 -1.2427264 0.22705033 1.0460385 1.5428693 -0.62083536
-1.2719065 -1.1293806 -0.9089323 0.03807584 0.087592006 0.61817837 1.1674246 -1.1014916
1.3621842 0.033119187 0.22612655 -1.1288288 1.1052079 1.3543668 0.51608664 1.3374236
0.22605774 -0.4162402 -0.48647922 -0.58868116 1.3797632 -1.3753408 -0.8525417 -1.3792493
-1.2109034 -0.74237245 1.3711146 -0.6371424 -0.0023604364 -0.8257293 -0.68617445 -0.9908563
-1.1574726 -0.7086272 0.95782495 -1.0376407 -0.013041133 0.58546656 -0.51421195 -1.4131757
-0.03523809 0.87663895 0.013509927 -0.8045275 -0.026430562 -0.048248857 -1.575909 -1.0036248
-0.81656426 0.0030467634 -0.8573089 0.26567504 -1.2317154 0.96817416 -0.5270469 1.341354
-0.544432 -1.4834516 -0.5681032 -1.408784 0.626214 0.8841932 1.3123337 -0.593392
-1.044259 -0.16367666 -0.6113801 -0.047601506 0.12417671 1.6294566 0.87141794 -1.3230959
-0.6202124 -0.100390345 -0.04194705 -0.39144132 1.2096289 1.1385801 1.2898222 1.2344697
-0.44668105 -0.58669585 -0.46853924 -0.4621145 2.0338583 -1.4802865 -0.41025877 -1.2918508
-1.0567777 -0.5644406 1.3940299 -0.46198362 -1.1282028 -0.16749272 -0.5714483 -0.5617434

bias f4 [4]
00000000: e17e 7f3e 10f4 183f 53fd f23e 2b2c 103f
0.24950744 0.5974741 0.47458896 0.56317395
